name: "image-text"
layer {
  name: "data"
  type: "Data"
  top: "data"
  top: "label"
  include {
    phase: TRAIN
  }
  data_param {
    source: "models/Image-Text/Data/coco_train2014_FCN_Adapt512_Resnet152_hglmm_pca6000_lmdb"
    batch_size: 1500
    backend: LMDB
  }
}

layer {
  name: "test_data"
  type: "Data"
  top: "data"
  top: "label"
  include {
    phase: TEST
  }
  data_param {
    source: "models/Image-Text/Data/coco_train2014_FCN_Adapt512_Resnet152_hglmm_pca6000_lmdb"
    batch_size: 1500
    backend: LMDB
  }
}
 
## slip image and text features
layer {
  name: "slice"
  type: "Slice"
  bottom: "data"
  top: "img_data"
  top: "text_data"
  slice_param {
    slice_dim: 1
    slice_point: 2048
  }
}

## image branch
layer {
  name: "img_fc1"
  type: "InnerProduct"
  bottom: "img_data"
  top: "img_fc1"
  param {
    lr_mult: 1
    decay_mult: 1
  }
  param {
    lr_mult: 2
    decay_mult: 0
  }
  inner_product_param {
    num_output: 2048
    weight_filler {
      type: "gaussian"
      std: 0.05
    }
    bias_filler {
      type: "constant"
      value: 0
    }
  }
}
layer {
  name: "img_relu1"
  type: "ReLU"
  bottom: "img_fc1"
  top: "img_fc1"
}
layer {
  name: "img_drop1"
  type: "Dropout"
  bottom: "img_fc1"
  top: "img_fc1"
  dropout_param {
    dropout_ratio: 0.5
  }
}

layer {
  name: "img_fc2"
  type: "InnerProduct"
  bottom: "img_fc1"
  top: "img_fc2"
  param {
    lr_mult: 1
    decay_mult: 1
  }
  param {
    lr_mult: 2
    decay_mult: 0
  }
  inner_product_param {
    num_output: 512
    weight_filler {
      type: "gaussian"
      std: 0.05
    }
    bias_filler {
      type: "constant"
      value: 0
    }
  }
}
layer {
   bottom: "img_fc2"
   top: "img_bnorm2"
   name: "img_bnorm2"
   type: "BatchNorm"
   param {
     lr_mult: 0
   }
   param {
     lr_mult: 0
   }
   param {
     lr_mult: 0
   }
   batch_norm_param {
     use_global_stats: false
   }
}
layer {
   bottom: "img_bnorm2"
   top: "img_bnorm2"
   name: "scale_img_bnorm2"
   type: "Scale"
   param {
     lr_mult: 1
     decay_mult: 1
   }
   param {
     lr_mult: 2
     decay_mult: 0
   }
   scale_param {
     bias_term: true
   }
}

layer {
  name: "img_relu2"
  type: "ReLU"
  bottom: "img_bnorm2"
  top: "img_bnorm2"
}

layer {
  name: "img_fc3"
  type: "InnerProduct"
  bottom: "img_bnorm2"
  top: "img_fc3"
  param {
    lr_mult: 1
    decay_mult: 1
  }
  param {
    lr_mult: 2
    decay_mult: 0
  }
  inner_product_param {
    num_output: 512
    weight_filler {
      type: "gaussian"
      std: 0.05
    }
    bias_filler {
      type: "constant"
      value: 0
    }
  }
}
layer {
   bottom: "img_fc3"
   top: "img_bnorm3"
   name: "img_bnorm3"
   type: "BatchNorm"
   param {
     lr_mult: 0
   }
   param {
     lr_mult: 0
   }
   param {
     lr_mult: 0
   }
   batch_norm_param {
     use_global_stats: false
   }
}
layer {
   bottom: "img_bnorm3"
   top: "img_bnorm3"
   name: "scale_img_bnorm3"
   type: "Scale"
   param {
     lr_mult: 1
     decay_mult: 1
   }
   param {
     lr_mult: 2
     decay_mult: 0
   }
   scale_param {
     bias_term: true
   }
}
layer {
  name: "img_relu3"
  type: "ReLU"
  bottom: "img_bnorm3"
  top: "img_bnorm3"
}

##
layer {
  name: "img_fc4"
  type: "InnerProduct"
  bottom: "img_bnorm3"
  top: "img_fc4"
  param {
    lr_mult: 1
    decay_mult: 1
  }
  param {
    lr_mult: 2
    decay_mult: 0
  }
  inner_product_param {
    num_output: 512
    weight_filler {
      type: "gaussian"
      std: 0.05
    }
    bias_filler {
      type: "constant"
      value: 0
    }
  }
}
layer {
   bottom: "img_fc4"
   top: "img_bnorm4"
   name: "img_bnorm4"
   type: "BatchNorm"
   param {
     lr_mult: 0
   }
   param {
     lr_mult: 0
   }
   param {
     lr_mult: 0
   }
   batch_norm_param {
     use_global_stats: false
   }
}
layer {
   bottom: "img_bnorm4"
   top: "img_bnorm4"
   name: "scale_img_bnorm4"
   type: "Scale"
   param {
     lr_mult: 1
     decay_mult: 1
   }
   param {
     lr_mult: 2
     decay_mult: 0
   }
   scale_param {
     bias_term: true
   }
}
layer {
  name: "img_relu4"
  type: "ReLU"
  bottom: "img_bnorm4"
  top: "img_bnorm4"
}

## Reshape
layer {
  name: "img_bnorm2_re"
  type: "Reshape"
  bottom: "img_bnorm2"
  top: "img_bnorm2_re"
  reshape_param { 
    shape {
      dim: 1500
      dim: 1
      dim: 512
      dim: 1
    } 
  }
}
layer {
  name: "img_bnorm3_re"
  type: "Reshape"
  bottom: "img_bnorm3"
  top: "img_bnorm3_re"
  reshape_param { 
    shape {
      dim: 1500
      dim: 1
      dim: 512
      dim: 1
    } 
  }
}
layer {
  name: "img_bnorm4_re"
  type: "Reshape"
  bottom: "img_bnorm4"
  top: "img_bnorm4_re"
  reshape_param { 
    shape {
      dim: 1500
      dim: 1
      dim: 512
      dim: 1
    } 
  }
}

## concat
layer {
  name: "img_bnorm_concat"
  bottom: "img_bnorm2_re"
  bottom: "img_bnorm3_re"
  bottom: "img_bnorm4_re"
  top: "img_bnorm_concat"
  type: "Concat"
  concat_param {
    concat_dim: 1
  }
}

## Convolutional fusion
layer { 
  name: 'img_fusion' 
  type: "Convolution" 
  bottom: 'img_bnorm_concat' 
  top: 'img_fusion'
  param {
    lr_mult: 0.1
    decay_mult: 1
  }
  param {
    lr_mult: 0.2
    decay_mult: 0
  }
  convolution_param {
    num_output: 1
    kernel_size: 1
    pad: 0
    weight_filler {
      type: "constant" 
      value: 0.333  
    }
    bias_filler {
      type: "constant"
      value: 0
    }
  }
}
layer {
   bottom: "img_fusion"
   top: "img_fusion_re_bnorm"
   name: "img_fusion_re_bnorm"
   type: "BatchNorm"
   param {
     lr_mult: 0
   }
   param {
     lr_mult: 0
   }
   param {
     lr_mult: 0
   }
   batch_norm_param {
     use_global_stats: false
   }
}
layer {
   bottom: "img_fusion_re_bnorm"
   top: "img_fusion_re_bnorm"
   name: "scale_img_fusion_re_bnorm"
   type: "Scale"
   param {
     lr_mult: 0.1
     decay_mult: 1
   }
   param {
     lr_mult: 0.2
     decay_mult: 0
   }
   scale_param {
     bias_term: true
   }
}
layer {
  name: "img_fusion_re"
  type: "Reshape"
  bottom: "img_fusion_re_bnorm"
  top: "img_fusion_re_bnorm_re"
  reshape_param { 
    shape {
      dim: 1500
      dim: 512
      dim: 1
      dim: 1
    } 
  }
}

## L2 Norm
layer {
  name: "img_l2norm"
  type: "Norm"
  bottom: "img_fusion_re_bnorm_re"
  top: "img_l2norm"
}


## text branch
layer {
  name: "text_fc1"
  type: "InnerProduct"
  bottom: "text_data"
  top: "text_fc1"
  param {
    lr_mult: 1
    decay_mult: 1
  }
  param {
    lr_mult: 2
    decay_mult: 0
  }
  inner_product_param {
    num_output: 2048
    weight_filler {
      type: "gaussian"
      std: 0.05
    }
    bias_filler {
      type: "constant"
      value: 0
    }
  }
}
layer {
  name: "text_relu1"
  type: "ReLU"
  bottom: "text_fc1"
  top: "text_fc1"
}
layer {
  name: "text_drop1"
  type: "Dropout"
  bottom: "text_fc1"
  top: "text_fc1"
  dropout_param {
    dropout_ratio: 0.5
  }
}

layer {
  name: "text_fc2"
  type: "InnerProduct"
  bottom: "text_fc1"
  top: "text_fc2"
  param {
    lr_mult: 1
    decay_mult: 1
  }
  param {
    lr_mult: 2
    decay_mult: 0
  }
  inner_product_param {
    num_output: 512
    weight_filler {
      type: "gaussian"
      std: 0.05
    }
    bias_filler {
      type: "constant"
      value: 0
    }
  }
}
layer {
   bottom: "text_fc2"
   top: "text_bnorm2"
   name: "text_bnorm2"
   type: "BatchNorm"
   param {
     lr_mult: 0
   }
   param {
     lr_mult: 0
   }
   param {
     lr_mult: 0
   }
   batch_norm_param {
     use_global_stats: false
   }
}
layer {
   bottom: "text_bnorm2"
   top: "text_bnorm2"
   name: "scale_text_bnorm2"
   type: "Scale"
   param {
     lr_mult: 1
     decay_mult: 1
   }
   param {
     lr_mult: 2
     decay_mult: 0
   }
   scale_param {
     bias_term: true
   }
}
layer {
  name: "text_relu2"
  type: "ReLU"
  bottom: "text_bnorm2"
  top: "text_bnorm2"
}

layer {
  name: "text_fc3"
  type: "InnerProduct"
  bottom: "text_bnorm2"
  top: "text_fc3"
  param {
    lr_mult: 1
    decay_mult: 1
  }
  param {
    lr_mult: 2
    decay_mult: 0
  }
  inner_product_param {
    num_output: 512
    weight_filler {
      type: "gaussian"
      std: 0.05
    }
    bias_filler {
      type: "constant"
      value: 0
    }
  }
}
layer {
   bottom: "text_fc3"
   top: "text_bnorm3"
   name: "text_bnorm3"
   type: "BatchNorm"
   param {
     lr_mult: 0
   }
   param {
     lr_mult: 0
   }
   param {
     lr_mult: 0
   }
   batch_norm_param {
     use_global_stats: false
   }
}
layer {
   bottom: "text_bnorm3"
   top: "text_bnorm3"
   name: "scale_text_bnorm3"
   type: "Scale"
   param {
     lr_mult: 1
     decay_mult: 1
   }
   param {
     lr_mult: 2
     decay_mult: 0
   }
   scale_param {
     bias_term: true
   }
}
layer {
  name: "text_relu3"
  type: "ReLU"
  bottom: "text_bnorm3"
  top: "text_bnorm3"
}

layer {
  name: "text_fc4"
  type: "InnerProduct"
  bottom: "text_bnorm3"
  top: "text_fc4"
  param {
    lr_mult: 1
    decay_mult: 1
  }
  param {
    lr_mult: 2
    decay_mult: 0
  }
  inner_product_param {
    num_output: 512
    weight_filler {
      type: "gaussian"
      std: 0.05
    }
    bias_filler {
      type: "constant"
      value: 0
    }
  }
}
layer {
   bottom: "text_fc4"
   top: "text_bnorm4"
   name: "text_bnorm4"
   type: "BatchNorm"
   param {
     lr_mult: 0
   }
   param {
     lr_mult: 0
   }
   param {
     lr_mult: 0
   }
   batch_norm_param {
     use_global_stats: false
   }
}
layer {
   bottom: "text_bnorm4"
   top: "text_bnorm4"
   name: "scale_text_bnorm4"
   type: "Scale"
   param {
     lr_mult: 1
     decay_mult: 1
   }
   param {
     lr_mult: 2
     decay_mult: 0
   }
   scale_param {
     bias_term: true
   }
}
layer {
  name: "text_relu4"
  type: "ReLU"
  bottom: "text_bnorm4"
  top: "text_bnorm4"
}

## Reshape
layer {
  name: "text_bnorm2_re"
  type: "Reshape"
  bottom: "text_bnorm2"
  top: "text_bnorm2_re"
  reshape_param { 
    shape {
      dim: 1500
      dim: 1
      dim: 512
      dim: 1
    } 
  }
}
layer {
  name: "text_bnorm3_re"
  type: "Reshape"
  bottom: "text_bnorm3"
  top: "text_bnorm3_re"
  reshape_param { 
    shape {
      dim: 1500
      dim: 1
      dim: 512
      dim: 1
    } 
  }
}
layer {
  name: "text_bnorm4_re"
  type: "Reshape"
  bottom: "text_bnorm4"
  top: "text_bnorm4_re"
  reshape_param { 
    shape {
      dim: 1500
      dim: 1
      dim: 512
      dim: 1
    } 
  }
}

## concat
layer {
  name: "text_bnorm_concat"
  bottom: "text_bnorm2_re"
  bottom: "text_bnorm3_re"
  bottom: "text_bnorm4_re"
  top: "text_bnorm_concat"
  type: "Concat"
  concat_param {
    concat_dim: 1
  }
}

## Convolutional fusion
layer { 
  name: 'text_fusion' 
  type: "Convolution" 
  bottom: 'text_bnorm_concat' 
  top: 'text_fusion'
  param {
    lr_mult: 0.1
    decay_mult: 1
  }
  param {
    lr_mult: 0.2
    decay_mult: 0
  }
  convolution_param {
    num_output: 1
    kernel_size: 1
    pad: 0
    weight_filler {
      type: "constant" 
      value: 0.333  
    }
    bias_filler {
      type: "constant"
      value: 0
    }
  }
}
layer {
   bottom: "text_fusion"
   top: "text_fusion_re_bnorm"
   name: "text_fusion_re_bnorm"
   type: "BatchNorm"
   param {
     lr_mult: 0
   }
   param {
     lr_mult: 0
   }
   param {
     lr_mult: 0
   }
   batch_norm_param {
     use_global_stats: false
   }
}
layer {
   bottom: "text_fusion_re_bnorm"
   top: "text_fusion_re_bnorm"
   name: "scale_text_fusion_re_bnorm"
   type: "Scale"
   param {
     lr_mult: 0.1
     decay_mult: 1
   }
   param {
     lr_mult: 0.2
     decay_mult: 0
   }
   scale_param {
     bias_term: true
   }
}
layer {
  name: "text_fusion_re"
  type: "Reshape"
  bottom: "text_fusion_re_bnorm"
  top: "text_fusion_re_bnorm_re"
  reshape_param { 
    shape {
      dim: 1500
      dim: 512
      dim: 1
      dim: 1
    } 
  }
}

## L2 Norm
layer {
  name: "text_l2norm"
  type: "Norm"
  bottom: "text_fusion_re_bnorm_re"
  top: "text_l2norm"
}

layer {
  name: "loss"
  type: "BiDirectionalLoss"
  bottom: "img_l2norm"
  bottom: "label"
  bottom: "text_l2norm"
  bottom: "label"
  top: "loss"
  rank_param{
    neg_num: 50
    pair_size: 2
    hard_ratio: 1
    rand_ratio: 0
    margin: 0.1
  }
}


